…
ps://localhost:8080/"},"id":"IBHsLw3_arlg","executionInfo":{"status":"ok","timestamp":1670348724132,"user_tz":-480,"elapsed":394,"user":{"displayName":"Shenlly_ Zhou","userId":"06158802007359381128"}},"outputId":"1e2a2377-5479-494c-9429-7dc9b86760ab"},"execution_count":66,"outputs":[{"output_type":"stream","name":"stdout","text":["Model: \"sequential_4\"\n","_________________________________________________________________\n"," Layer (type)                Output Shape              Param #   \n","=================================================================\n"," dense_28 (Dense)            (None, 512)               489984    \n","                                                                 \n"," dense_29 (Dense)            (None, 256)               131328    \n","                                                                 \n"," dense_30 (Dense)            (None, 128)               32896     \n","                                                                 \n"," dense_31 (Dense)            (None, 64)                8256      \n","                                                                 \n"," dense_32 (Dense)            (None, 32)                2080      \n","                                                                 \n"," dense_33 (Dense)            (None, 16)                528       \n","                                                                 \n"," dropout_4 (Dropout)         (None, 16)                0         \n","                                                                 \n"," dense_34 (Dense)            (None, 5)                 85        \n","                                                                 \n","=================================================================\n","Total params: 665,157\n","Trainable params: 665,157\n","Non-trainable params: 0\n","_________________________________________________________________\n"]}]},{"cell_type":"code","source":["\n","model.fit(\n","    X_train,\n","    y_train,\n","    e
…
